…
get class number\n","model.add(Activation('softmax'))\n","# opt = keras.optimizers.SGD(lr=0.0001, momentum=0.0, decay=0.0, nesterov=False)\n","# opt = keras.optimizers.Adam(lr=0.0001)\n","#opt = keras.optimizers.rmsprop(lr=0.00001, decay=1e-6)\n","model.summary()"],"execution_count":null,"outputs":[{"output_type":"stream","text":["Model: \"sequential_1\"\n","_________________________________________________________________\n","Layer (type)                 Output Shape              Param #   \n","=================================================================\n","conv1d_1 (Conv1D)            (None, 108, 1024)         22528     \n","_________________________________________________________________\n","batch_normalization_1 (Batch (None, 108, 1024)         4096      \n","_________________________________________________________________\n","activation_1 (Activation)    (None, 108, 1024)         0         \n","_________________________________________________________________\n","max_pooling1d_1 (MaxPooling1 (None, 54, 1024)          0         \n","_________________________________________________________________\n","conv1d_2 (Conv1D)            (None, 54, 1024)          19923968  \n","_________________________________________________________________\n","batch_normalization_2 (Batch (None, 54, 1024)          4096      \n","_________________________________________________________________\n","activation_2 (Activation)    (None, 54, 1024)          0         \n","_________________________________________________________________\n","max_pooling1d_2 (MaxPooling1 (None, 27, 1024)          0         \n","_________________________________________________________________\n","conv1d_3 (Conv1D)            (None, 27, 512)           8913408   \n","_________________________________________________________________\n","batch_normalization_3 (Batch (None, 27, 512)           2048      \n","_________________________________________________________________\n","activation_3 (Activation)    (None, 27, 512)           0         \n","_________________________________________________________________\n","max_pooling1d_3 (MaxPooling1 (None, 13, 512)           0         \n","_________________________________________________________________\n","conv1d_4 (Conv1D)            (None, 13, 256)           1966336   \n","_________________________________________________________________\n","batch_normalization_4 (Batch (None, 13, 256)           1024      \n","_________________________________________________________________\n","activation_4 (Activation)    (None, 13, 256)           0         \n","_________________________________________________________________\n","max_pooling1d_4 (MaxPooling1 (None, 6, 256)            0         \n","_________________________________________________________________\n","conv1d_5 (Conv1D)            (None, 6, 128)            426112    \n","_________________________________________________________________\n","batch_normalization_5 (Batch (None, 6, 128)            512       \n","_________________________________________________________________\n","activation_5 (Activation)    (None, 6, 128)            0         \n","_________________________________________________________________\n","max_pooling1d_5 (MaxPooling1 (None, 3, 128)            0         \n","_________________________________________________________________\n","conv1d_6 (Conv1D)            (None, 3, 64)             90176     \n","_________________________________________________________________\n","batch_normalization_6 (Batch (None, 3, 64)             256       \n","_________________________________________________________________\n","activation_6 (Activation)    (None, 3, 64)             0         \n","_________________________________________________________________\n","max_pooling1d_6 (MaxPooling1 (None, 1, 64)             0         \n","_________________________________________________________________\n","conv1d_7 (Conv1D)            (None, 1, 32)             18464     \n","_________________________________________________________________\n","batch_normalization_7 (Batch (None, 1, 32)             128       \n","_________________________________________________________________\n","activation_7 (Activation)    (None, 1, 32)             0         \n","_________________________________________________________________\n","global_max_pooling1d_1 (Glob (None, 32)                0         \n","_________________________________________________________________\n","dense_1 (Dense)              (None, 128)               4224      \n","_________________________________________________________________\n","activation_8 (Activation)    (None, 128)               0         \n","_________________________________________________________________\n","dense_2 (Dense)              (None, 7)                 903       \n","_________________________________________________________________\n","activation_9 (Activation)    (None, 7)                 0         \n","=================================================================\n","Total params: 31,378,279\n","Trainable params: 31,372,199\n","Non-trainable params: 6,080\n","_________________________________________________________________\n"],"name":"stdout"}]},{"cell_type":"code","metadata":{"id":"jjHR9tUyBp2e","colab_type":"code","colab":{"base_uri":"https://localhost:8080/","height":1000},
…
